results/checkpoint.pth (torch_old, 28481 bytes, 6 tensors)

fc1.weight f4 [64, 37]
0	0xbd32a621	-0.043615464
1	0x3c804f8e	0.015662935
2	0x3bff6ff9	0.0077953306
3	0xbd4d87e3	-0.05017842
4	0xbd2761c4	-0.04086472
5	0x3ce6ec05	0.028188715
6	0x3d6579f3	0.056024503
7	0x3da2ea3e	0.079548344
8	0x3d53e944	0.05173613
9	0xbc9001b8	-0.017578945
10	0x3e74bdca	0.23900524
11	0xbf08d174	-0.534446
12	0xbf2cd79e	-0.67516506
13	0xbf556a06	-0.83364904
14	0xc02620aa	-2.5957437
15	0x3c3941e9	0.011307218
16	0x3d1ae612	0.03781707
17	0xbc8007ac	-0.015628658
18	0x3d7d8251	0.061891858
19	0x3baa1a11	0.0051910956
20	0x3d5a0a86	0.053232692
21	0x3da10b4e	0.07863484
22	0x3d3b2516	0.045689665
23	0x3e45bc0e	0.19310018
24	0x3e2611bf	0.16217707
25	0xbd3d3a1c	-0.046197996
26	0x3dadec21	0.08492304
27	0x3d246c65	0.040142436
28	0x3de00edb	0.109403335
29	0x3d691cd7	0.05691227
30	0x399c6ae1	0.0002983427
31	0x3c4c2074	0.012458909
32	0x3ba36aa4	0.004987078
33	0x3c5fbadd	0.0136553915
34	0xbcea1235	-0.028573135
35	0x3b9b3f13	0.0047377436
36	0x3be2ab75	0.006917412
37	0x3e27d4c8	0.16389763
38	0x3dfa1399	0.12210769
39	0x3e23cd41	0.15996267
40	0x3d305531	0.043049995
41	0xbdd5b094	-0.1043407
42	0xbd848c2c	-0.06472048
43	0x3e52c5ff	0.20583342
44	0x3e972f11	0.29528096
45	0xbe8713e2	-0.26382357
46	0xbf4a582a	-0.7904078
47	0x3da9620c	0.08270654
48	0x3b561c3c	0.0032670638
49	0x3de8863a	0.11353727
50	0x3da03dc8	0.07824284
51	0xbd71f817	-0.059074488
52	0x3bbb3c25	0.005713957
53	0x3ec6a9b4	0.38801348
54	0x3d428b5e	0.047496192
55	0xbc16e7ef	-0.009210571
56	0xbf170382	-0.5898973
57	0xbde565aa	-0.112010315
58	0x3e27010e	0.16308996
59	0xbdefa5e1	-0.11701561
60	0xbe95eeda	-0.29283792
61	0xbed49301	-0.41518405
62	0xbdf761a4	-0.1207917
63	0x3ec11e81	0.37718585
64	0x3e0bd1c1	0.13654234
65	0xbf011f95	-0.50438815
66	0xbff10ff3	-1.8832992
67	0x3e04c0b8	0.12964141
68	0x3dbea280	0.09308338
69	0x3e726082	0.23669627
70	0xbf049e5b	-0.5180413
71	0xbf3f294a	-0.7467238
72	0x3c009d3f	0.00784999
73	0xbbf06232	-0.0073359245
74	0x3ef0f2a5	0.47060123
75	0xbe8cf609	-0.2753146
76	0x3d85ea6f	0.06538855
77	0xbf3d4cf5	-0.7394555
78	0xbf461fe3	-0.77392405
79	0xbe524689	-0.2053472
80	0x3e80a0bd	0.25122634
81	0x3e4256e8	0.18978465
82	0xbeb109a6	-0.34577674
83	0xbe6559a9	-0.22397484
84	0xbeac475d	-0.33648196
85	0xbdd9d06a	-0.10635455
86	0x3e8ae974	0.27131236
87	0xbe3d62f1	-0.18494774
88	0x3d040991	0.032235686
89	0xbdaf0eab	-0.085477196
90	0xbdcec886	-0.100968406
91	0x3e81eb97	0.25375053
92	0xbd7b25b3	-0.06131525
93	0xbe9a4a8e	-0.30135006
94	0xbd8cde00	-0.06878281
95	0xbef5c10e	-0.47998852
96	0x3e0ee82a	0.13955751
97	0x3e15d97e	0.14633748
98	0xbec1c1c2	-0.37843138
99	0xbed2a0ad	-0.4113821
100	0x3cb379a3	0.021908587
101	0x3e375a2a	0.17905489
102	0x3e4a9a3b	0.19785397
103	0xbd35e6a4	-0.04440941
104	0x3d9c827e	0.07642077
105	0xbee2690a	-0.44220763
106	0xbbea4c28	-0.007150192
107	0xbe495968	-0.19663012
108	0xbe7d5f49	-0.2474338
109	0x3da550d1	0.08072055
110	0xbcfe4da3	-0.03104288
111	0xbd98f0ad	-0.0746778
112	0x3e539c9d	0.20665212
113	0x3e7a6052	0.24450806
114	0xbef62f5b	-0.48083004
115	0xc00eaaeb	-2.229182
116	0xbe85510c	-0.26038396
117	0x3dd260b4	0.10272351
118	0xbdb487b2	-0.08814944
119	0xbeb0cb64	-0.34530175
120	0xbeba4d0a	-0.363869
121	0x3dec3d62	0.11535145
122	0xbea1ab5b	-0.31576046
123	0xbe15fffb	-0.1464843
124	0xbef7070b	-0.4824756
125	0xbe84efef	-0.25964305
126	0xbe5bcf91	-0.21465899
127	0x3c83f003	0.016105657
128	0x3e3e95c7	0.18611823
129	0xbf09a555	-0.537679
130	0xc03b233b	-2.9240253
131	0x3df5fdf6	0.1201133
132	0xbeb6ed4a	-0.35727912
133	0xbe4c5f0e	-0.19958135
134	0xbecc9760	-0.3995924
135	0x3d3c747b	0.046009522
136	0xbf0ad683	-0.5423357
137	0xbec0f129	-0.3768399
138	0x3e90e13d	0.28296843
139	0xbece457c	-0.40287387
140	0xbfb14329	-1.3848621
141	0xbf211365	-0.6292022
142	0xbedf7251	-0.43641904
143	0x3d7a954d	0.06117754
144	0xbc3b1da4	-0.011420641
145	0xbf9352b7	-1.1509618
146	0x3e6abc73	0.2292345
147	0xbcbe028c	-0.023194574
148	0xbdc99f24	-0.09844807
149	0xbdca7ea6	-0.098874375
150	0xbdbd7e0d	-0.09252558
151	0xbe960251	-0.29298642
152	0xbd197c28	-0.03747192
153	0x3e965c69	0.29367378
154	0xbe0fa3e1	-0.14027359
155	0xbd938868	-0.07203752
156	0xbf7c89ca	-0.9864775
157	0xc004f11b	-2.077216
158	0xbe9e24ac	-0.30887353
159	0x3e4097a3	0.18807845
160	0x3c976b9b	0.018483927
161	0xbe8bb17c	-0.27283847
162	0xbe82c591	-0.25541356
163	0x3ce27ce7	0.027647449
164	0xbe3e4e0b	-0.18584459
165	0xbc022b95	-0.007944961
166	0xbe48a349	-0.19593538
167	0x3e07ce2e	0.13262245
168	0x3c841a68	0.016125873
169	0xbf0054d5	-0.50129443
170	0x3e052cac	0.13005322
171	0x3e25ec2a	0.1620337
172	0xbe250ecb	-0.16118924
173	0xbd37e691	-0.04489762
174	0x3e1c15cb	0.15242688
175	0x3cf219a1	0.029553236
176	0x3e526733	0.2054718
177	0x3e1f231e	0.1554074
178	0xbdec1558	-0.115275085
179	0x3d19eaa4	0.037577286
180	0x3db73f35	0.08947603
181	0x3e861c58	0.261935
182	0x3e3a630b	0.18201844
183	0x3c6c7ea4	0.01443449
184	0xbc57eb83	-0.013178709
185	0xbc35c369	-0.011093953
186	0xba8ab46e	-0.0010582337
187	0x3c8e0b65	0.017339418
188	0xbc8cc429	-0.01718338
189	0xbe169ad5	-0.14707501
190	0x3ec7f14a	0.39051276
191	0xbcf2a28c	-0.029618524
192	0xbdae8d09	-0.08522994
193	0xbf25a116	-0.6469892
194	0xbff75712	-1.9323447
195	0xbd3b8d2b	-0.045788925
196	0xbd612920	-0.05497086
197	0xbdcca5b3	-0.09992542
198	0x3dc8b356	0.097998306
199	0x3e016a43	0.12638192
200	0xbdbe660d	-0.092968084
201	0xbcb1efd7	-0.02172081
202	0x3dac1add	0.08403561
203	0x3dc55082	0.09634496
204	0x3d9f7525	0.077860154
205	0x3da88791	0.08228982
206	0x3d87191d	0.06596587
207	0x3c2adee0	0.010429114
208	0x3e1882e3	0.1489368
209	0x3ea9a535	0.33133855
210	0x3b8a463e	0.0042197993
211	0xbd13d1ff	-0.03608894
212	0x3d170bca	0.036876477
213	0x3e0ad944	0.13559443
214	0x3e2ede70	0.1707704
215	0x3cd41c08	0.025892273
216	0x3d33f327	0.04393306
217	0xbd3ca74f	-0.046057995
218	0x3e287bf9	0.16453542
219	0x3de133b3	0.10996189
220	0xbc60712b	-0.013698856
221	0x3c60d6fe	0.013723133
222	0xbb6f2f3d	-0.0036496662
223	0x3e41cb30	0.18925166
224	0xbb5ba78b	-0.0033516611
225	0xbe76d640	-0.24105167
226	0xbe19fde6	-0.15038261
227	0xbddca89a	-0.10774346
228	0xbe4fd71c	-0.20296901
229	0x3e189992	0.14902332
230	0xbcb64cc4	-0.022253402
231	0x3dcdd7ee	0.10050951
232	0x3d86ce52	0.06582321
233	0x3a88d5c0	0.0010439679
234	0x3e543f43	0.20727257
235	0x3d5471d5	0.05186637
236	0x3c61eb1d	0.0137889655
237	0xbde11058	-0.109894454
238	0xbdcfa5ac	-0.10139021
239	0x3e40acd2	0.18815926
240	0xbe8fd5eb	-0.28092894
241	0x3d6787e6	0.056526087
242	0x3cdac5b2	0.026705597
243	0xbe0008fa	-0.12503424
244	0x3ddf631e	0.10907577
245	0xbd057689	-0.032583747
246	0xbe6746a1	-0.22585537
247	0xbe2d90cb	-0.16949765
248	0x3da92a22	0.08259989
249	0xbdc92502	-0.09821512
250	0xbd34b28e	-0.044115596
251	0x3d76969d	0.06020223
252	0x3d59628e	0.053072505
253	0xbe283757	-0.1642736
254	0x3de25526	0.11051397
255	0xbe10498c	-0.14090556

fc1.bias f4 [64]
0	0x3e18b08e	0.149111
1	0x3df45fbb	0.11932322
2	0xbdef2990	-0.11677849
3	0x3c7216a4	0.014775906
4	0x3e421add	0.1895556
5	0xbc864062	-0.016388122
6	0xbe78450c	-0.2424509
7	0xbd8c6c98	-0.0685665
8	0xbd9281a2	-0.07153632
9	0xbea3e4af	-0.3201041
10	0x3dc2a1ef	0.09503543
11	0x3e2ebac3	0.17063431
12	0x3dd160a8	0.10223514
13	0x3dc8d1f2	0.09805669
14	0x3e3153a8	0.17317069
15	0xbda11cd1	-0.078668244
16	0xbd7e97b8	-0.06215641
17	0xbdee4070	-0.11633384
18	0xbe17d08a	-0.14825645
19	0xbe92752a	-0.28605014
20	0xbe0fc028	-0.14038146
21	0x3da64f91	0.08120645
22	0x3d5154ec	0.05110638
23	0xbe8b7a9d	-0.27241984
24	0xbe91906e	-0.28430504
25	0x3d8995eb	0.06718048
26	0xbd00fb7d	-0.031489838
27	0x3ccfcc35	0.025365928
28	0xbd054ae8	-0.03254214
29	0x3dbe7b73	0.0930089
30	0xbe02981c	-0.12753338
31	0xbe8998a1	-0.2687426
32	0x3e4e89d3	0.20169763
33	0xbc53e107	-0.012932069
34	0xbe6d5ee0	-0.23180723
35	0x3cef74b9	0.029230462
36	0xbdbf455d	-0.09339402
37	0x3d04356a	0.032277502
38	0xbc8cde0e	-0.017195728
39	0xbe5708d7	-0.20999466
40	0xbac8f9a7	-0.0015333191
41	0x3d50d792	0.050986834
42	0xbe824584	-0.2544366
43	0x3e9436b2	0.2894798
44	0xbe01858a	-0.12648597
45	0xbce0ef94	-0.02745799
46	0xbeab99a8	-0.33515668
47	0xbe4cb0ed	-0.19989367
48	0xbe8e1c71	-0.27756074
49	0xbc9b1cd9	-0.018934654
50	0xbd89e0b2	-0.0673231
51	0xbd46342f	-0.04838961
52	0xbdb911cc	-0.090365976
53	0xbd894e2c	-0.06704363
54	0xbe016eec	-0.1263997
55	0xbde24c7c	-0.110497445
56	0xbdc4b803	-0.0960541
57	0xbdc05d78	-0.09392828
58	0xbe46ac28	-0.1940161
59	0xbe26f4c9	-0.16304316
60	0xbc5bbb96	-0.013411423
61	0x3e2d6cbb	0.16936009
62	0xbdf9592d	-0.12175212
63	0x3d2bcbf7	0.041942563

fc2.weight f4 [64, 64]
0	0xbd7d8018	-0.061889738
1	0x3eddc958	0.43317676
2	0xbe48983a	-0.1958932
3	0x3f8931d6	1.0718334
4	0xbdf59e38	-0.119930685
5	0xbf34b245	-0.7058452
6	0xbeb5fe81	-0.35545734
7	0xbee5ee76	-0.44908494
8	0xbe899d2b	-0.26877722
9	0xbe7624fe	-0.24037549
10	0x3e742cf9	0.2384528
11	0xbeac18c1	-0.33612636
12	0xbea45652	-0.32097107
13	0xbe0fb2be	-0.14033028
14	0xbf0b27e2	-0.5435773
15	0xbe56df0b	-0.20983522
16	0xbddff1bc	-0.10934779
17	0xbea7f3b0	-0.32803106
18	0xbef6b432	-0.48184353
19	0xbe8e20cd	-0.277594
20	0xbcf7ab7e	-0.030233141
21	0x3de19847	0.11015373
22	0xbe9efcf5	-0.31052366
23	0xbe7fb544	-0.24971491
24	0x3dfd6f6d	0.123747684
25	0x3e33493c	0.17508405
26	0x3ebaa3f5	0.36453214
27	0xbe20c5cd	-0.15700455
28	0x3cce9cf6	0.02522133
29	0xbe5649a3	-0.20926528
30	0xbea27fc2	-0.31738096
31	0xbe415cfd	-0.18883128
32	0x3e25c7d5	0.16189511
33	0xbe066eed	-0.13128252
34	0x3e0caa29	0.13736786
35	0xbc8edbd2	-0.017438803
36	0xbe5cf681	-0.21578409
37	0x3ea952bd	0.33070937
38	0x3e597bc4	0.21238619
39	0xbf45a88f	-0.77210325
40	0xbedcfccb	-0.43161616
41	0xbe583286	-0.21113023
42	0x3d358df4	0.04432483
43	0xbe115a36	-0.14194569
44	0xbefe4bab	-0.49667105
45	0xbed04767	-0.40679476
46	0xbed6a6ac	-0.41924036
47	0xbe8893f7	-0.26675388
48	0xbe012920	-0.12613344
49	0xbf1714b7	-0.59015983
50	0xbe241ed0	-0.16027379
51	0x3d1a852d	0.037724663
52	0xbcf224c8	-0.029558554
53	0x3f09aef9	0.5378261
54	0xbdb7710d	-0.089571096
55	0xbd1cb3cf	-0.038257416
56	0xbe92d80f	-0.28680465
57	0xbeecc586	-0.46244448
58	0xbf2e358f	-0.68050474
59	0xbe9e0d7f	-0.30869672
60	0xbe86b82f	-0.26312396
61	0x3b3bb3c0	0.0028641075
62	0x3d85fc03	0.06542208
63	0x3e303cc8	0.17210686
64	0xbf09e672	-0.53867257
65	0x3ebaa679	0.36455134
66	0x3e0c0f9f	0.13677834
67	0x3f31c36f	0.69438833
68	0x3dbd8908	0.09254652
69	0x3e36d4ec	0.17854661
70	0xbe03dea7	-0.12877904
71	0xbe046cc3	-0.12932114
72	0xbe933190	-0.2874875
73	0x3ec16a0f	0.3777623
74	0x3ec32eec	0.38121736
75	0x3c882788	0.016620412
76	0xbd9325b5	-0.071849264
77	0x3e7997fc	0.24374384
78	0xbdd79940	-0.10527277
79	0x3e41257e	0.18861958
80	0xbd4788a0	-0.04871428
81	0x3e1498af	0.14511369
82	0xbeeca976	-0.46223038
83	0xbbbb08d1	-0.005707838
84	0xbe6c0ec8	-0.23052514
85	0xbe841ebd	-0.258047
86	0x3d8be4b1	0.06830729
87	0xbdb489b2	-0.08815326
88	0xbedb9ce2	-0.4289313
89	0xbe00650f	-0.12538551
90	0xbe5314f3	-0.2061346
91	0x3d39c206	0.04535105
92	0x3dc6d2a1	0.09708143
93	0x3cea4760	0.028598487
94	0x3e8e520c	0.27796972
95	0x3d7a948b	0.061176818
96	0xbe6082e5	-0.21924932
97	0x3ebdb92a	0.3705533
98	0x3e24f69f	0.16109703
99	0x3e812746	0.25225276
100	0x3cf0fd8e	0.02941778
101	0x3ecffe68	0.40623784
102	0x3ec36f8a	0.38171035
103	0xbe4707ef	-0.1943662
104	0xbc9e876f	-0.01935169
105	0x3e36ee63	0.17864375
106	0x3eab4b79	0.3345602
107	0xbe9154a6	-0.28384894
108	0xbe6486da	-0.22317067
109	0xbdefdd4d	-0.11712132
110	0xbe83312a	-0.25623447
111	0x3e84b83d	0.25921813
112	0x3d0d712a	0.03453175
113	0x3e8173e5	0.25283733
114	0xbd4c13ef	-0.049823698
115	0x3dc9bf30	0.09850919
116	0x3e902933	0.28156433
117	0x3ef17c32	0.47165066
118	0xbebd8dce	-0.3702225
119	0xbcce5dd5	-0.025191227
120	0x3de75262	0.1129501
121	0xbe932f07	-0.28746817
122	0x3da76c21	0.08174921
123	0x3e01807f	0.12646674
124	0xbe428991	-0.1899779
125	0x3d843e7b	0.0645723
126	0xbd18f080	-0.037338734
127	0xbe0f063f	-0.13967226
128	0xbf1378c8	-0.5760617
129	0xbe179f0a	-0.14806762
130	0xbcaea5c3	-0.021319276
131	0xbce926af	-0.028460829
132	0xbe02aa50	-0.12760282
133	0x3d58d5aa	0.05293814
134	0xbe088e82	-0.13335612
135	0xbe111403	-0.1416779
136	0x3d9b6c2f	0.07588994
137	0xbe8edb3d	-0.2790164
138	0xbe042346	-0.12904081
139	0x3dc803ac	0.09766325
140	0x3cb0b7cf	0.021572022
141	0xbd111ad9	-0.035425995
142	0x3daca1b3	0.08429279
143	0x3e32c53d	0.17458053
144	0xbe60404a	-0.21899524
145	0x3e3b29bd	0.1827764
146	0x3dcd200a	0.100158766
147	0x3e0bcb09	0.1365167
148	0xbdab69b8	-0.083697736
149	0x3e580903	0.21097188
150	0x3e149209	0.14508833
151	0x3d864847	0.065567546
152	0xbd0f2433	-0.03494663
153	0xbd844e02	-0.06460191
154	0x3e858318	0.2607658
155	0x3eb229d9	0.34797552
156	0x3d56dca6	0.05245652
157	0x3e8910a7	0.26770517
158	0x3e89ea2e	0.26936477
159	0x3d34616c	0.04403822
160	0xbe5ebe18	-0.21752203
161	0x3d414d01	0.047192577
162	0x3ce825a2	0.028338257
163	0xbe4edff8	-0.20202625
164	0xbbe0ffdd	-0.006866439
165	0x3d3da791	0.046302382
166	0x3e4358ef	0.19076894
167	0x3971f7b8	0.00023075833
168	0x3e67fe1c	0.22655529
169	0xbece3559	-0.40275076
170	0x3a9ebaf7	0.0012110163
171	0xbdab0d1c	-0.0835211
172	0xbe5c84ca	-0.2153503
173	0x3c4a4d66	0.012347555
174	0x3c48dd37	0.012259773
175	0x3c98f8ba	0.01867329
176	0xbda554d0	-0.08072817
177	0xbe519e2f	-0.20470499
178	0xbe262d53	-0.16228227
179	0xbbd09ca5	-0.0063663297
180	0xbe084542	-0.1330767
181	0xbcdfc1c7	-0.02731408
182	0xbde945b4	-0.11390248
183	0xbd5a3c54	-0.05328019
184	0x3d5b2fa9	0.05351225
185	0x3dc6ea7d	0.09712694
186	0x3daf639e	0.08563922
187	0xbe72d7a8	-0.23715079
188	0x3d161bef	0.036647733
189	0x3e63afe7	0.2223507
190	0x3d7abbf4	0.061214402
191	0x3de273b6	0.11057226
192	0xbc6d9f7e	-0.014503358
193	0x3ee1e5ff	0.44120786
194	0x3f221676	0.6331552
195	0x3ee6c3f2	0.4507137
196	0xbe0979af	-0.13425325
197	0xbd966b80	-0.07344723
198	0xbeccef8c	-0.4002651
199	0xbd705bc2	-0.058681257
200	0x3db49942	0.08818294
201	0xbe99382a	-0.29925662
202	0x3dae7897	0.085190944
203	0x3de03422	0.109474435
204	0xbd75264e	-0.059850983
205	0xbe3689c5	-0.17825992
206	0x3e13d979	0.14438428
207	0x3e2dc16c	0.16968316
208	0xbec8e80f	-0.39239547
209	0xbd5c2383	-0.053744804
210	0x3e5f33e8	0.21797144
211	0x3dd93e0e	0.10607539
212	0x3dfa4e74	0.12221995
213	0x3f083ee9	0.53220993
214	0xbd94b607	-0.072612815
215	0x3d74731f	0.0596801
216	0x3dd43d05	0.10363201
217	0xbe53f3b6	-0.20698437
218	0x3e281d15	0.16417344
219	0x3e852026	0.2600109
220	0x3e8f5c0b	0.2799991
221	0x3d4b42a2	0.049624093
222	0x3ec346d8	0.38139987
223	0xbe976f41	-0.29577067
224	0x3e9938ad	0.29926053
225	0x3e97a18b	0.29615435
226	0xbe299e44	-0.1656428
227	0x3e1be609	0.1522447
228	0xbeff5eb8	-0.49876952
229	0xbaa310ee	-0.0012440959
230	0xbe4d9308	-0.20075619
231	0xbe0948ab	-0.13406627
232	0xbe290863	-0.16507106
233	0xbe8b4ef9	-0.2720869
234	0x3dd0f7a8	0.10203487
235	0xbd766b33	-0.060160827
236	0x3c5f2643	0.013619962
237	0x3e14ac80	0.14518929
238	0xbe042c5b	-0.12907545
239	0xbea2667c	-0.31718814
240	0x3e20f307	0.15717708
241	0xbc553f0b	-0.013015519
242	0xbc723d25	-0.014785086
243	0xbe20a083	-0.1568623
244	0x3ee4b676	0.44670457
245	0x3e353904	0.17697531
246	0x3e8025be	0.25028795
247	0xbe4b73b0	-0.1986835
248	0xbeaedad4	-0.34151328
249	0x3d998578	0.0749616
250	0xbe8bc772	-0.27300602
251	0x3d6051bd	0.05476545
252	0x3e7b9e99	0.24572219
253	0x3b7544b6	0.0037424988
254	0xbe967155	-0.2938334
255	0x3f03a90b	0.51429814

fc2.bias f4 [64]
0	0xbdb0abc9	-0.086265154
1	0xbe067ebd	-0.13134284
2	0x3eeefc0f	0.4667668
3	0xbe3a0036	-0.18164143
4	0x3ed5e87d	0.41778937
5	0xbe316855	-0.17324956
6	0xbcd514aa	-0.02601083
7	0xbe52a09d	-0.20569082
8	0x3f0c46ca	0.54795516
9	0x3f3f3044	0.7468302
10	0xbd29a92e	-0.041421108
11	0x3f3f4f28	0.7473016
12	0x3f291038	0.6604037
13	0xbda6d8fb	-0.081468545
14	0xbdbc52bf	-0.0919547
15	0x3e765612	0.2405627
16	0x3e53b84b	0.20675771
17	0x3d3357dc	0.04378496
18	0xbea0ff97	-0.31445
19	0x3e7c0838	0.2461251
20	0x3e6410db	0.22272055
21	0x3f140744	0.57823586
22	0xbe3f9914	-0.18710738
23	0xbe79b9a8	-0.24387228
24	0x3dcf95e8	0.10136014
25	0xbec51e72	-0.3849979
26	0x3e0f79d7	0.14011322
27	0x3bbb24b1	0.005711161
28	0x3d1273ea	0.035755076
29	0x3f170c75	0.5900338
30	0xbd60924c	-0.05482702
31	0xbbc4f89a	-0.006011081
32	0xbe1963de	-0.14979503
33	0x3e4fb579	0.2028407
34	0x3e0ee32b	0.13953845
35	0x3da42727	0.0801528
36	0xbc506fe8	-0.012721993
37	0xbde8d0fd	-0.11367986
38	0x3f2db519	0.6785446
39	0x3e8dafee	0.27673286
40	0x3b82c9a5	0.003991323
41	0x3f558802	0.83410656
42	0x3d206db0	0.039167106
43	0xbe88ec8b	-0.26742968
44	0xbe32f6d7	-0.17476974
45	0xbe774f4e	-0.24151346
46	0x3f1d353a	0.6140934
47	0xbcd62db2	-0.026144836
48	0x3db62de5	0.088954724
49	0x3db9a636	0.09064905
50	0xbde11d48	-0.10991913
51	0x3f1f4331	0.622119
52	0x3ddc3c02	0.10753633
53	0xbe98f4c6	-0.29874247
54	0x3f280097	0.656259
55	0xbe462e9b	-0.19353716
56	0xbecc05bf	-0.39848134
57	0xbeaa7a2a	-0.3329633
58	0x3e0aa4bc	0.13539404
59	0xbe310581	-0.17287256
60	0x3cd5f167	0.026116086
61	0x3ef51247	0.47865507
62	0x3e85533a	0.2604006
63	0xbe492430	-0.1964271

fc3.weight f4 [4, 64]
0	0xbf13d3ed	-0.5774525
1	0x3d202ce7	0.039105322
2	0x3e4a40cb	0.19751279
3	0xbea0d3c9	-0.3141158
4	0x3e2e5cac	0.17027539
5	0xbe7dbd79	-0.2477931
6	0x3e73d592	0.2381194
7	0xbe2631ff	-0.1623001
8	0x3e40321f	0.1876912
9	0x3e710ba6	0.235396
10	0x3eea08ff	0.45709988
11	0x3ea10f3b	0.31456932
12	0x3e40c048	0.1882335
13	0xbebaccef	-0.36484477
14	0xbd1c5030	-0.03816241
15	0xbbdb9566	-0.0067011593
16	0x3e92d027	0.28674433
17	0x3ddadb15	0.10686318
18	0xbe490450	-0.19630551
19	0x3e8cffb9	0.2753885
20	0x3e8c5959	0.27411917
21	0x3ec5fb25	0.3866817
22	0xbe9a5f6c	-0.30150926
23	0xbe0c272b	-0.13686816
24	0xbdd5fa1a	-0.10448094
25	0xbe3eb064	-0.18621975
26	0x3e4329c0	0.19058895
27	0x3e92aee6	0.28649062
28	0x3cda4dff	0.02664852
29	0x3e2e85b7	0.17043196
30	0xbf229cdf	-0.63520616
31	0x3d091235	0.03346463
32	0xbe4871fa	-0.19574729
33	0x3e7740b4	0.24145776
34	0x3e1b7605	0.1518174
35	0x3e6193d1	0.22029044
36	0x3e57c826	0.21072444
37	0x3e8b9c86	0.27267855
38	0x3e7b81b7	0.24561201
39	0x3e3d172b	0.18465869
40	0x3ebc22eb	0.3674539
41	0x3e841e6f	0.2580447
42	0x3db0330e	0.08603488
43	0xbe869462	-0.26285082
44	0xbd9bc476	-0.07605831
45	0xbd271f98	-0.040801615
46	0x3e838113	0.25684413
47	0x3eeeeca6	0.46664923
48	0x3d8167df	0.0631864
49	0x3e0fb77d	0.14034839
50	0xbe91277e	-0.28350443
51	0x3ec63024	0.38708603
52	0x3e161aff	0.14658736
53	0xbe4a2991	-0.19742419
54	0x3e5431b6	0.20722088
55	0x3c19ea24	0.009394202
56	0xbea0814e	-0.31348652
57	0xbe27d4a5	-0.16389711
58	0x3eb83164	0.35975182
59	0xbde13f6c	-0.10998425
60	0x3e3404ef	0.17580007
61	0x3e305435	0.17219622
62	0x3e6942a4	0.22779328
63	0x3dc1429b	0.09436532
64	0x3ebe32c2	0.371481
65	0x3ebbacd3	0.36655292
66	0x3e7f3a29	0.2492453
67	0xbe8018a5	-0.25018802
68	0x3df1d971	0.11809052
69	0xbe35c1a9	-0.17749657
70	0x3e3f9787	0.18710147
71	0xbe783b8e	-0.24241468
72	0x3e63a66b	0.22231452
73	0x3e2b77a8	0.16744864
74	0x3e442134	0.19153291
75	0x3e8e84b7	0.27835628
76	0x3e182800	0.14859009
77	0x3e207a40	0.15671635
78	0xbbdb80ef	-0.0066987197
79	0x3e9446ec	0.2896036
80	0x3e6cf936	0.23141941
81	0x3db27702	0.08714105
82	0xbe0c4f28	-0.1370207
83	0x3e27b85f	0.16378926
84	0x3eabab31	0.33529046
85	0x3ea6ddc9	0.32591084
86	0xbeeae67a	-0.45878965
87	0x3ae8b69e	0.001775462
88	0xbdb8cab8	-0.090230405
89	0xbda82c89	-0.082116194
90	0x3e58759c	0.21138614
91	0x3c63da4f	0.013907029
92	0xbc8f8adf	-0.017522274
93	0x3e6d3946	0.2316638
94	0x3e083e3f	0.13304995
95	0x3d8026ab	0.06257375
96	0x3e7349b8	0.2375859
97	0x3e8fb91e	0.2807092
98	0x3e0adb6d	0.13560267
99	0x3e461cb6	0.1934689
100	0x3ea79e09	0.3273776
101	0x3ef96a3c	0.48713863
102	0x3e94d745	0.29070488
103	0x3e0d0c6b	0.13774268
104	0x3ed666c0	0.41875267
105	0x3e54f6ca	0.20797268
106	0x3de9f34d	0.11423359
107	0xbe55c59b	-0.20876162
108	0xbdee47df	-0.11634802
109	0xbdc0b88f	-0.09410202
110	0x3e7d8e37	0.24761282
111	0x3f279357	0.654592
112	0x3d983f66	0.07433967
113	0x3e471fba	0.19445696
114	0x3e894388	0.26809335
115	0x3ef098db	0.4699162
116	0x3ea3f8e0	0.32025814
117	0x3b480a8e	0.003052387
118	0x3e4c8e02	0.19976047
119	0x3e6cab74	0.23112279
120	0xbe39980c	-0.18124408
121	0xbe0a3525	-0.13496836
122	0x3eae5c4c	0.34054792
123	0xbe228b71	-0.15873505
124	0x3e5068b0	0.20352435
125	0x3e60ea32	0.21964338
126	0x3d4ed1e0	0.05049312
127	0x3e89cf23	0.26915845
128	0xbeb097ce	-0.34490818
129	0x3eb15801	0.34637454
130	0x3e7b825c	0.24561447
131	0x3e5082bc	0.20362371
132	0x3e908fd0	0.2823472
133	0xbebf3d49	-0.37351444
134	0x3ebde89b	0.37091526
135	0xbe0875cc	-0.13326186
136	0x3dbb4757	0.09144466
137	0x3e66aa21	0.22525837
138	0x3ef7a113	0.48365077
139	0x3e9b04f1	0.30277207
140	0x3e8de0f4	0.27710688
141	0xbecb63f3	-0.39724693
142	0xbd985c66	-0.074394986
143	0x3f131fe7	0.57470554
144	0x3e979c4a	0.29611427
145	0xbebddb01	-0.3708115
146	0xbebd021a	-0.36915666
147	0x3c0b28e6	0.008493638
148	0x3dd97cc3	0.106194995
149	0x3ea79cb0	0.3273673
150	0xbdb119b1	-0.08647478
151	0x3e684673	0.22683124
152	0x3e7bdd6e	0.24596187
153	0xbe8e5736	-0.27800912
154	0x3e5c5322	0.21516088
155	0x3e8424cf	0.25809333
156	0x3e9d8f8d	0.30773583
157	0x3e8e39ab	0.27778372
158	0xbc89adee	-0.016806569
159	0xbe217eb3	-0.15770988
160	0x3ecb2486	0.39676303
161	0x3df56e6d	0.11983953
162	0x3e5df4c1	0.21675397
163	0x3eb15baa	0.34640247
164	0xbc886d80	-0.016653776
165	0x3e26001f	0.16210984
166	0x3e648faf	0.22320436
167	0x3e072265	0.13196714
168	0xbe444fa6	-0.19171008
169	0x3e8db08f	0.27673766
170	0x3e9b7af2	0.30367237
171	0x3d3d7c75	0.04626127
172	0xbdb3a113	-0.08770957
173	0xbdff6888	-0.1247111
174	0x3e5f31b3	0.21796302
175	0x3ee23610	0.4418187
176	0x3eb9c848	0.36285615
177	0x3ce389d8	0.02777569
178	0x3e85e8c1	0.2615414
179	0x3ee1459c	0.4399842
180	0x3ea72a2f	0.3264937
181	0xbd8483b9	-0.064704366
182	0x3e518734	0.20461732
183	0x3e9962d7	0.2995822
184	0xbeb068a7	-0.34454843
185	0xbea5f6a4	-0.32414734
186	0x3d65758a	0.056020297
187	0xbdeeacbf	-0.116540425
188	0xbd0ca755	-0.034339268
189	0x3ea72d27	0.32651636
190	0x3d51a893	0.051186156
191	0xbebee94a	-0.3728736
192	0x3f22207c	0.6333082
193	0x3e9af911	0.30268148
194	0x3e46434b	0.19361608
195	0xbe7c2346	-0.24622831
196	0x3c91fbcb	0.01782026
197	0xbb815d41	-0.0039478843
198	0x3ee7b6cd	0.45256653
199	0xbbb946ab	-0.005654176
200	0x3e77f83f	0.24215792
201	0x3e9a9596	0.3019225
202	0x3eaf75c8	0.34269547
203	0x3e6e43a7	0.23267995
204	0x3e8aa909	0.2708209
205	0x3d509764	0.050925627
206	0x3d325d1d	0.04354583
207	0x3e23bda8	0.15990317
208	0x3e30e3e2	0.1727443
209	0x3e3a9ee4	0.18224674
210	0x3d86f485	0.06589607
211	0x3d005913	0.031334948
212	0x3e03033d	0.12794204
213	0x3ec333e4	0.38125527
214	0xbe3d621e	-0.1849446
215	0xbd2fcd72	-0.042920537
216	0x3e174ddf	0.14775799
217	0x3bc932c3	0.0061400845
218	0x3d1ef904	0.0388117
219	0x3f258c64	0.64667344
220	0x3e516099	0.20447005
221	0x3e2f8608	0.17140973
222	0xbf351dfe	-0.7074889
223	0x3e998bcb	0.29989466
224	0x3e988519	0.29789045
225	0x3e1e8092	0.15478733
226	0x3c50ea15	0.012751122
227	0xbdaeef1a	-0.08541699
228	0xbe56d7f0	-0.20980811
229	0x3ef72619	0.48271254
230	0x3e9d854c	0.3076576
231	0x3eb2b96b	0.34907088
232	0x3e0747bd	0.1321096
233	0x3e9ef8ae	0.31049103
234	0x3f0d3197	0.55153793
235	0xbe5c9e3f	-0.21544741
236	0x3ead6e59	0.3387325
237	0xbec25108	-0.37952447
238	0x3e4e61a0	0.20154428
239	0xbc5dd634	-0.01353984
240	0x3d14db42	0.036341913
241	0xbe84b2a8	-0.25917554
242	0x3ed60ed1	0.4180818
243	0x3e9ff277	0.31239673
244	0x3e2b833f	0.16749285
245	0xbdb2f02c	-0.087372154
246	0x3e8562aa	0.26051837
247	0x3e85eb0e	0.26155895
248	0xbe6ba09e	-0.2301049
249	0xbe88fd2d	-0.26755658
250	0x3e25df1f	0.16198395
251	0xbeb93441	-0.3617268
252	0xbf268802	-0.6505128
253	0x3e61d719	0.2205471
254	0x3eb4da49	0.35322788
255	0xbf20ef35	-0.62865

fc3.bias f4 [4]
0	0x3f1aefd3	0.6052219
1	0x3ed96c17	0.42465279
2	0x3ec19e4b	0.3781608
3	0x3ec431a9	0.38319138
